Layer (type)                 Output Shape              Param #
=================================================================
conv1d (Conv1D)              (None, 47, 1)             6237
_________________________________________________________________
dense (Dense)                (None, 47, 32)            64
_________________________________________________________________
max_pooling1d (MaxPooling1D) (None, 23, 32)            0
_________________________________________________________________
dense_1 (Dense)              (None, 23, 16)            528
_________________________________________________________________
conv1d_1 (Conv1D)            (None, 22, 16)            528
_________________________________________________________________
max_pooling1d_1 (MaxPooling1 (None, 11, 16)            0
_________________________________________________________________
conv1d_2 (Conv1D)            (None, 10, 8)             264
_________________________________________________________________
flatten (Flatten)            (None, 80)                0
_________________________________________________________________
dense_2 (Dense)              (None, 64)                5184
_________________________________________________________________
dropout (Dropout)            (None, 64)                0
_________________________________________________________________
dense_3 (Dense)              (None, 32)                2080
_________________________________________________________________
dense_4 (Dense)              (None, 1)                 33
=================================================================
Total params: 14,918
Trainable params: 14,918
Non-trainable params: 0
_________________________________________________________________
2021-10-30 21:27:46.423955: I tensorflow/compiler/mlir/mlir_graph_optimization_pass.cc:185] None of the MLIR Optimization Passes are enabled (registered 2)
Epoch 1/40
4/4 - 10s - loss: 0.4185 - accuracy: 0.3214 - val_loss: 0.3990 - val_accuracy: 0.3214
…
************************************************************************************************************************************************
************************************************************************************************************************************************
************************************************************************************************************************************************

Model: "sequential"
_________________________________________________________________
Layer (type)                 Output Shape              Param #
=================================================================
embedding (Embedding)        (None, 50, 20)            71540
_________________________________________________________________
spatial_dropout1d (SpatialDr (None, 50, 20)            0
_________________________________________________________________
lstm (LSTM)                  (None, 100)               48400
_________________________________________________________________
dense (Dense)                (None, 64)                6464
_________________________________________________________________
dense_1 (Dense)              (None, 32)                2080
_________________________________________________________________
dense_2 (Dense)              (None, 1)                 33
=================================================================
Total params: 128,517
Trainable params: 128,517
Non-trainable params: 0
_________________________________________________________________
None
2021-10-30 21:30:06.819261: I tensorflow/compiler/mlir/mlir_graph_optimization_pass.cc:185] None of the MLIR Optimization Passes are enabled (registered 2)
Epoch 1/20
14/14 - 2s - loss: 0.0000e+00 - accuracy: 0.3255 - val_loss: 0.0000e+00 - val_accuracy: 0.2523
…
