Model: "sequential"
_________________________________________________________________
Layer (type)                 Output Shape              Param #
=================================================================
conv2d (Conv2D)              (None, 32, 32, 8)         224
_________________________________________________________________
batch_normalization (BatchNo (None, 32, 32, 8)         32
_________________________________________________________________
max_pooling2d (MaxPooling2D) (None, 16, 16, 8)         0
_________________________________________________________________
conv2d_1 (Conv2D)            (None, 16, 16, 16)        1168
_________________________________________________________________
max_pooling2d_1 (MaxPooling2 (None, 8, 8, 16)          0
_________________________________________________________________
conv2d_2 (Conv2D)            (None, 6, 6, 48)          6960
_________________________________________________________________
max_pooling2d_2 (MaxPooling2 (None, 3, 3, 48)          0
_________________________________________________________________
flatten (Flatten)            (None, 432)               0
_________________________________________________________________
dense (Dense)                (None, 128)               55424
_________________________________________________________________
dense_1 (Dense)              (None, 432)               55728
_________________________________________________________________
reshape (Reshape)            (None, 3, 3, 48)          0
_________________________________________________________________
up_sampling2d (UpSampling2D) (None, 6, 6, 48)          0
_________________________________________________________________
conv2d_transpose (Conv2DTran (None, 8, 8, 16)          6928
_________________________________________________________________
up_sampling2d_1 (UpSampling2 (None, 16, 16, 16)        0
_________________________________________________________________
conv2d_transpose_1 (Conv2DTr (None, 16, 16, 8)         1160
_________________________________________________________________
up_sampling2d_2 (UpSampling2 (None, 32, 32, 8)         0
_________________________________________________________________
batch_normalization_1 (Batch (None, 32, 32, 8)         32
_________________________________________________________________
conv2d_transpose_2 (Conv2DTr (None, 32, 32, 3)         219
=================================================================
Total params: 127,875
Trainable params: 127,843
Non-trainable params: 32
_________________________________________________________________
2021-11-07 23:12:23.730187: I tensorflow/compiler/mlir/mlir_graph_optimization_pass.cc:185] None of the MLIR Optimization Passes are enabled (registered 2)
Epoch 1/16
40/40 [==============================] - 20s 481ms/step - loss: 0.2045 - val_loss: 0.2252
…
