Model: "sequential"
_________________________________________________________________
Layer (type)                 Output Shape              Param #
=================================================================
conv2d (Conv2D)              (None, 28, 28, 8)         80
_________________________________________________________________
max_pooling2d (MaxPooling2D) (None, 14, 14, 8)         0
_________________________________________________________________
conv2d_1 (Conv2D)            (None, 12, 12, 16)        1168
_________________________________________________________________
max_pooling2d_1 (MaxPooling2 (None, 6, 6, 16)          0
_________________________________________________________________
conv2d_2 (Conv2D)            (None, 6, 6, 48)          6960
_________________________________________________________________
max_pooling2d_2 (MaxPooling2 (None, 3, 3, 48)          0
_________________________________________________________________
flatten (Flatten)            (None, 432)               0
_________________________________________________________________
dense (Dense)                (None, 128)               55424
_________________________________________________________________
dense_1 (Dense)              (None, 432)               55728
_________________________________________________________________
reshape (Reshape)            (None, 3, 3, 48)          0
_________________________________________________________________
up_sampling2d (UpSampling2D) (None, 6, 6, 48)          0
_________________________________________________________________
conv2d_transpose (Conv2DTran (None, 6, 6, 16)          6928
_________________________________________________________________
up_sampling2d_1 (UpSampling2 (None, 12, 12, 16)        0
_________________________________________________________________
conv2d_transpose_1 (Conv2DTr (None, 14, 14, 8)         1160
_________________________________________________________________
up_sampling2d_2 (UpSampling2 (None, 28, 28, 8)         0
_________________________________________________________________
conv2d_transpose_2 (Conv2DTr (None, 28, 28, 1)         73
=================================================================
Total params: 127,521
Trainable params: 127,521
Non-trainable params: 0
_________________________________________________________________
2021-11-07 21:23:39.332895: I tensorflow/compiler/mlir/mlir_graph_optimization_pass.cc:185] None of the MLIR Optimization Passes are enabled (registered 2)
Epoch 1/30
48/48 [==============================] - 12s 239ms/step - loss: 0.0732 - val_loss: 0.0665
…
